…
      "source": [
        "model"
      ],
      "metadata": {
        "colab": {
          "base_uri": "https://localhost:8080/"
        },
        "id": "v1LKdux_E2mC",
        "outputId": "3dff219b-bb61-4199-fe91-2370e8d17f04"
      },
      "id": "v1LKdux_E2mC",
      "execution_count": 29,
      "outputs": [
        {
          "output_type": "execute_result",
          "data": {
            "text/plain": [
              "DistilBertForSequenceClassification(\n",
              "  (distilbert): DistilBertModel(\n",
              "    (embeddings): Embeddings(\n",
              "      (word_embeddings): Embedding(30522, 768, padding_idx=0)\n",
              "      (position_embeddings): Embedding(512, 768)\n",
              "      (LayerNorm): LayerNorm((768,), eps=1e-12, elementwise_affine=True)\n",
              "      (dropout): Dropout(p=0.1, inplace=False)\n",
              "    )\n",
              "    (transformer): Transformer(\n",
              "      (layer): ModuleList(\n",
              "        (0-5): 6 x TransformerBlock(\n",
              "          (attention): DistilBertSdpaAttention(\n",
              "            (dropout): Dropout(p=0.1, inplace=False)\n",
              "            (q_lin): Linear(in_features=768, out_features=768, bias=True)\n",
              "            (k_lin): Linear(in_features=768, out_features=768, bias=True)\n",
              "            (v_lin): Linear(in_features=768, out_features=768, bias=True)\n",
              "            (out_lin): Linear(in_features=768, out_features=768, bias=True)\n",
              "          )\n",
              "          (sa_layer_norm): LayerNorm((768,), eps=1e-12, elementwise_affine=True)\n",
              "          (ffn): FFN(\n",
              "            (dropout): Dropout(p=0.1, inplace=False)\n",
              "            (lin1): Linear(in_features=768, out_features=3072, bias=True)\n",
              "            (lin2): Linear(in_features=3072, out_features=768, bias=True)\n",
              "            (activation): GELUActivation()\n",
              "          )\n",
              "          (output_layer_norm): LayerNorm((768,), eps=1e-12, elementwise_affine=True)\n",
              "        )\n",
              "      )\n",
              "    )\n",
              "  )\n",
              "  (pre_classifier): Linear(in_features=768, out_features=768, bias=True)\n",
              "  (classifier): Linear(in_features=768, out_features=2, bias=True)\n",
              "  (dropout): Dropout(p=0.2, inplace=False)\n",
              ")"
            ]
          },
          "metadata": {},
          "execution_count": 29
        }
      ]
    },
    {
      "cell_type": "markdown",
      "id": "6c4383a4",
      "metadata": {
        "id": "6c4383a4"
      },
      "source": [
        "# Low-Rank Adaptation"
…
